checkpoint.pt (torch, 51847 bytes, 9 tensors)

lstm.weight_ih_l0 f4 [40, 50]
0	0x3e8348c7	0.25641462
1	0xbdb515de	-0.088420615
2	0xbdd4766c	-0.1037415
3	0x3d39a0a0	0.0453192
4	0x3e93e4b7	0.28885433
5	0x3b939100	0.0045033693
6	0xbe1fcf86	-0.15606508
7	0x3e073c56	0.1320661
8	0xbd63bfa8	-0.0556027
9	0x3c3e1ae0	0.011603087
10	0x3ea03553	0.31290683
11	0x3e1301a4	0.14356095
12	0x3e8371eb	0.2567285
13	0x3d9eea80	0.07759571
14	0xbddec8be	-0.10878132
15	0xbe4b142c	-0.19831914
16	0x3d753380	0.059863567
17	0x3e603686	0.21895799
18	0xbda250ce	-0.079255685
19	0xbe8a24d8	-0.26981235
20	0x3e2b2be6	0.16715965
21	0xbe5698ab	-0.20956676
22	0x3c96a460	0.018388927
23	0xbe45bd98	-0.19310606
24	0xbddba3f6	-0.107246324
25	0x3df8bf98	0.121459186
26	0xbe8227e9	-0.25421074
27	0x3d342668	0.04398194
28	0xbbbd2500	-0.005772233
29	0xbe3b93cc	-0.18318099
30	0x3e8fbb11	0.28072408
31	0x3e88df7f	0.26733014
32	0x3e771036	0.24127278
33	0x3e9ad8bd	0.30243483
34	0x3e6270ae	0.22113296
35	0xbe82c3b5	-0.25539938
36	0xbe7b0c1e	-0.24516341
37	0x3cc284e0	0.023745
38	0x3e3e4502	0.18581012
39	0x3e17668e	0.14785215
40	0x3e0824f6	0.1329535
41	0x3e36a616	0.17836794
42	0xbe50ebe1	-0.2040248
43	0xbe6802b6	-0.22657284
44	0x3e985d0b	0.29758486
45	0xbe053a10	-0.1301043
46	0x3ca38740	0.019961953
47	0xbd638600	-0.055547714
48	0xbd369370	-0.0445742
49	0x3e9dfca9	0.30856827
50	0x3cb083d0	0.021547228
51	0x3d852de0	0.065028906
52	0xbdacd67e	-0.08439349
53	0x3e9d292b	0.3069547
54	0xbe5acfde	-0.21368358
55	0xbe7b6de8	-0.24553645
56	0xbe997068	-0.29968572
57	0xbdb86f50	-0.09005606
58	0x3de7555c	0.11295578
59	0x3e4eb1ea	0.20185056
60	0xbe54201d	-0.20715375
61	0xbdfc0eb6	-0.123074934
62	0xbe9d1e62	-0.30687243
63	0xbdf688ae	-0.12037788
64	0xbe565bcc	-0.20933455
65	0x3e092894	0.13394386
66	0x3e84be25	0.2592632
67	0x3e1c4b4a	0.15263095
68	0xbc08f5a0	-0.008359343
69	0xbe178d88	-0.14800084
70	0x3e60f1b2	0.219672
71	0xbe37de9a	-0.1795601
72	0xbd2c2be8	-0.04203406
73	0xbe871ac1	-0.263876
74	0xbe743fd0	-0.23852468
75	0x3d42de20	0.047575116
76	0xbe73610e	-0.23767492
77	0xbe519244	-0.20465952
78	0x3e9d0b1b	0.30672535
79	0xbdd80a6a	-0.10548861
80	0xbe2be41f	-0.1678624
81	0xbe1599e1	-0.14609481
82	0x3d9a9d1c	0.075494975
83	0xbe64b808	-0.22335827
84	0x3e8d72c1	0.27626613
85	0xbcd09c40	-0.02546513
86	0xbdeed236	-0.11661188
87	0xbe9d7633	-0.3075424
88	0xbde93536	-0.11387102
89	0xbe3b8145	-0.18311031
90	0xbe2d0c10	-0.16899133
91	0xbd2e8778	-0.04260966
92	0x3e023eda	0.12719288
93	0xbcb0bfe0	-0.021575868
94	0xbcd57e20	-0.026061118
95	0x3d7fc410	0.06244284
96	0xbdf61218	-0.1201517
97	0x3e82d91f	0.25556275
98	0x3e197858	0.14987314
99	0xbe4df86e	-0.201143
100	0xbe0d5394	-0.13801414
101	0xbe1b3a87	-0.15159045
102	0xbe24515f	-0.16046666
103	0x3cb7c2aa	0.02243169
104	0xbd433d43	-0.047665846
105	0xba2d3945	-0.000660796
106	0xbe8b3001	-0.27185062
107	0x3dc0265a	0.09382315
108	0x3e91b25f	0.284564
109	0xbe57b126	-0.2106367
110	0xbe508c72	-0.20366076
111	0x3e79fee2	0.24413636
112	0x3de899d1	0.11357463
113	0x3e66493c	0.22488874
114	0xbe3c0db5	-0.18364604
115	0x3e0b58cf	0.13608097
116	0x3e0462c6	0.12928304
117	0x3dabc209	0.08386619
118	0xbe0c11c6	-0.13678655
119	0xbd49c940	-0.049264193
120	0x3e494079	0.196535
121	0xbe25ee04	-0.16204077
122	0x3e819130	0.25306082
123	0x3e401883	0.1875935
124	0x3dc15c08	0.09441382
125	0xbe183e6d	-0.14867564
126	0xbea95dfb	-0.33079514
127	0xbd589b9a	-0.05288277
128	0x3e13ea46	0.14444837
129	0x3e6578f3	0.2240942
130	0xbe34436a	-0.17603841
131	0x3e22b260	0.15888357
132	0xbe5fdf84	-0.21862608
133	0x3e009076	0.12555107
134	0x3d9f1dfa	0.077693895
135	0x3e08e9da	0.13370457
136	0xbe7095ab	-0.23494594
137	0x3e5b53e4	0.2141872
138	0xbea932f2	-0.3304668
139	0xbe6c0368	-0.23048174
140	0xbd854b91	-0.06508554
141	0x3e124894	0.14285499
142	0x3d4a9eb2	0.04946775
143	0xbde58999	-0.11207885
144	0x3db50f0f	0.08840763
145	0x3d925566	0.07145195
146	0xbe609c38	-0.21934593
147	0xbd813b10	-0.063100934
148	0x3e3dbc2f	0.18528818
149	0x3e016f2b	0.12640063
150	0xbde65152	-0.11245979
151	0xbd8d58e8	-0.06901723
152	0x3d7d31fb	0.061815243
153	0x3cdabef0	0.026702374
154	0x3eb22ed3	0.3480135
155	0xbe3dd614	-0.18538696
156	0x3dad83a2	0.084723726
157	0x3e20cdfd	0.15703578
158	0x3dc560eb	0.09637626
159	0xbe82b945	-0.25531974
160	0x3dbf8c52	0.09352936
161	0xbe1ec455	-0.15504582
162	0x3ea170b5	0.315313
163	0xbcf23c69	-0.029569821
164	0x3e84644c	0.2585777
165	0xbcd7b476	-0.026331168
166	0xbe6b5902	-0.22983173
167	0x3a32cc0d	0.0006820567
168	0x3ebbbbe0	0.36666775
169	0xbbceefea	-0.006315221
170	0x3e71b89b	0.23605578
171	0x3ea759a4	0.32685578
172	0x3ead2325	0.33815876
173	0x3e2bbd6d	0.16771479
174	0xbe0d75b5	-0.13814433
175	0x3eb0469b	0.34428868
176	0x3da76186	0.08172898
177	0x3e00b4eb	0.12569015
178	0x3e2e2b27	0.17008649
179	0xbcb33a42	-0.021878365
180	0x3e256ef7	0.16155611
181	0x3e83af89	0.2571986
182	0x3def118e	0.1167327
183	0xbe301446	-0.17195234
184	0xbe517dd5	-0.20458157
185	0x3e670944	0.22562128
186	0x3e831f81	0.25609973
187	0xbca38120	-0.019959033
188	0xbd8a7026	-0.06759672
189	0x3e5c90f9	0.21539678
190	0x3ea2208c	0.31665456
191	0xbe3cba84	-0.18430525
192	0x3e3d7132	0.18500212
193	0xbe0ebd7a	-0.13939467
194	0x3d02f7d2	0.03197462
195	0xbc858c6f	-0.016302316
196	0xbcb146d7	-0.021640224
197	0x3eaa3095	0.3324019
198	0xbd44597d	-0.047936905
199	0x3e6eb2dc	0.23310417
200	0xbe34559a	-0.1761078
201	0x3e009800	0.12557983
202	0x3d118e2d	0.03553598
203	0x3df2dce1	0.118585356
204	0xbe3406b4	-0.17580682
205	0x3d7cf004	0.061752334
206	0x3d958ca2	0.07302214
207	0x3c9c3f95	0.019073287
208	0xbc2e30af	-0.010631724
209	0x3e95de56	0.2927119
210	0x3d3fe4fd	0.04684924
211	0xbe616292	-0.22010258
212	0xbd26b1be	-0.040696852
213	0x3df5be34	0.11999169
214	0x3e9ba96a	0.3040269
215	0x3e7bcd1f	0.24589966
216	0x3eb98feb	0.36242613
217	0xbe356a6f	-0.17716382
218	0x3e7178ed	0.23581286
219	0xbe04568f	-0.12923644
220	0x3e2470fa	0.16058722
221	0x3e6bb8ee	0.23019764
222	0x3e88bc8d	0.26706353
223	0x3ea28880	0.31744766
224	0xbe0b511f	-0.13605164
225	0x3cb56be5	0.022146175
226	0x3ea540e0	0.32276058
227	0xb8a602d8	-7.9160265e-05
228	0xbd4dcd14	-0.050244406
229	0xbe018fa0	-0.12652445
230	0xbcc4b049	-0.02400984
231	0xbd1eeffb	-0.038803082
232	0x3e2f732f	0.17133783
233	0x3e9f70b1	0.31140664
234	0xbc3c7a0f	-0.01150371
235	0xbd0cc4d4	-0.034367397
236	0x3cda9092	0.026680265
237	0x3a47e92c	0.0007625993
238	0xbdd8dacf	-0.105886094
239	0xbe61befe	-0.22045514
240	0x3eac9b19	0.3371208
241	0xbd759a9b	-0.059961896
242	0x3dd3d7c5	0.10343889
243	0x3e293f54	0.16528064
244	0x3eae2e4d	0.340197
245	0xbdcb93f5	-0.0994033
246	0xbbf4448e	-0.0074544614
247	0xbe061e5c	-0.13097519
248	0x3eba01c5	0.36329475
249	0x3e8f3d63	0.27976522
250	0x3d8d8d18	0.06911677
251	0x3e53caba	0.20682803
252	0x3d27c880	0.040962696
253	0x3e9ea0bb	0.30982003
254	0xbcc4ed30	-0.024038881
255	0x3e3c7176	0.18402657

lstm.weight_hh_l0 f4 [40, 10]
0	0x3c92dca0	0.017927468
1	0x3e47ee9e	0.19524619
2	0x3bcec700	0.0063103437
3	0xbd3e9fb0	-0.04653901
4	0x3e41a302	0.18909839
5	0x3e0ed3cc	0.13947982
6	0xbc9f3d40	-0.019438386
7	0x3e1d3bf6	0.15354905
8	0xbdba046c	-0.09082875
9	0x3c54c220	0.012985736
10	0xbd9ce338	-0.07660526
11	0xbe66f874	-0.22555715
12	0x3e4b6a9a	0.19864884
13	0xbe476e5e	-0.19475695
14	0x3e234cb0	0.15947223
15	0x3e0489e6	0.12943229
16	0xbe9f77d7	-0.31146118
17	0x3e1020a0	0.14074945
18	0xbcb026b0	-0.021502823
19	0xbe925624	-0.28581345
20	0xbe509b48	-0.20371735
21	0xbe2d4408	-0.16920483
22	0x3e15814c	0.14600104
23	0x3e958e91	0.29210332
24	0xbe9d7c2d	-0.307588
25	0xbe05237e	-0.1300182
26	0xbd92d132	-0.07168807
27	0x3e45969a	0.19295731
28	0x3dd545bc	0.104136914
29	0xbd96eea6	-0.07369737
30	0xbea14f20	-0.3150568
31	0x3e47391a	0.19455376
32	0xbe818052	-0.25293213
33	0x3d557278	0.05211112
34	0x3e4a5882	0.19760326
35	0xbe67e3c4	-0.2264548
36	0x3e8eceaf	0.27892062
37	0xbe5d8f0a	-0.21636596
38	0x3d7fcea0	0.062452912
39	0x3e2500d6	0.161136
40	0xbe5dceba	-0.21660891
41	0x3d6087a0	0.054816842
42	0x3e87079f	0.26373002
43	0xbe49eb40	-0.19718647
44	0xbda26ab2	-0.07930507
45	0xbe89426f	-0.26808497
46	0xbe6f9178	-0.23395336
47	0xbe97da92	-0.29658943
48	0x3d73bc88	0.05950597
49	0xbe4fc9ff	-0.20291899
50	0xbe1cf9d9	-0.15329684
51	0xbd96c75a	-0.07362242
52	0x3dfe33e0	0.12412238
53	0x3e7a2f0e	0.24432012
54	0xbe80837f	-0.25100324
55	0x3dc3480c	0.09535226
56	0xbe530030	-0.2060554
57	0xbe7f5c92	-0.24937657
58	0xbe39f3f8	-0.18159473
59	0x3d6753a8	0.056476265
60	0x3db45d94	0.08806911
61	0x3e54f126	0.20795116
62	0xbe1cd062	-0.15313867
63	0x3e523f76	0.20532021
64	0x3b620c00	0.0034492016
65	0x3d78d4a8	0.06074968
66	0xbcaa9b50	-0.020826012
67	0x3e226aca	0.1586105
68	0xbe31cf1e	-0.17364165
69	0xbdc8a072	-0.097962275
70	0x3e0ebc9a	0.13939133
71	0x3db9d07c	0.09072968
72	0x3d4e8bf0	0.050426424
73	0xbe9a11a2	-0.30091578
74	0xbe3b6e30	-0.18303752
75	0x3e0f1ae6	0.13975105
76	0xbdd4ab0a	-0.103841856
77	0xbdeb9492	-0.11502947
78	0x3cb022c0	0.021500945
79	0x3e9bd8e7	0.3043892
80	0x3e80f3ed	0.251861
81	0xbdf372be	-0.1188712
82	0x3dd39664	0.10331419
83	0x3e2b8ad4	0.16752177
84	0x3d62c278	0.05536124
85	0xbbf64f80	-0.0075168014
86	0x3e971bbf	0.29513356
87	0x3d89807c	0.067139596
88	0x3e71d5f6	0.23616776
89	0xbe47ea8c	-0.19523066
90	0x3e363b10	0.17795968
91	0xbd3d7fa0	-0.04626429
92	0xbd4d7b18	-0.05016622
93	0x3e24478c	0.16042918
94	0xbe2cb685	-0.168665
95	0x3dfcd74c	0.12345752
96	0x3de8fd50	0.113764405
97	0xbd1cb898	-0.03826198
98	0xbd7232e8	-0.05913058
99	0xbe193067	-0.1495987
100	0xbe3faed5	-0.18719037
101	0x3cebc750	0.028781563
102	0x3e7e657a	0.24843398
103	0x3bbca780	0.0057572722
104	0x3d81fb44	0.06346753
105	0x3e8a621b	0.27027974
106	0xbe80c1f0	-0.25147963
107	0x3e85ff63	0.26171407
108	0xbe4556f2	-0.19271448
109	0xbe930cb1	-0.2872062
110	0xbe73717a	-0.23773757
111	0x3d76f380	0.060290813
112	0xbc7d4f20	-0.015460759
113	0xbe727cb0	-0.23680377
114	0x3d0a5900	0.033776283
115	0x3db3e30c	0.0878354
116	0xbe42f4db	-0.19038717
117	0xbe22765d	-0.15865465
118	0x3e653aa6	0.22385654
119	0x3e89df1b	0.26928028
120	0x3e7af192	0.24506214
121	0xbdba83c4	-0.091071635
122	0xbe54443c	-0.20729154
123	0xbe99b01f	-0.30017182
124	0xbe459613	-0.1929553
125	0xbe18d32d	-0.14924307
126	0x3dfe7c70	0.12426078
127	0x3e98c74d	0.29839554
128	0xbe3f0e86	-0.18657884
129	0x3de5eb8c	0.112265676
130	0x3e81a2b9	0.2531946
131	0x3d2f5fd8	0.042816013
132	0x3bb6a580	0.0055739284
133	0xbda11c90	-0.07866776
134	0xbdedaac6	-0.11604838
135	0x3e4f5406	0.20246896
136	0x3e8b7bab	0.2724279
137	0xbbd2f640	-0.0064380467
138	0xbde85be2	-0.1134565
139	0xbd0de318	-0.0346404
140	0xbb98d1c0	-0.004663676
141	0xbd83bd34	-0.06432572
142	0xbd8aed96	-0.06783597
143	0xbdc8f6ea	-0.0981272
144	0xbdd862b0	-0.10565698
145	0x3d86e2ac	0.06586203
146	0x3e21d52e	0.15803978
147	0xbe14088f	-0.1445639
148	0x3e5a6682	0.21328166
149	0x3dfb9f24	0.12286213
150	0xbdddaf3a	-0.108244374
151	0xbc30e060	-0.010795683
152	0xbe4f3b18	-0.20237386
153	0xbd6d8898	-0.057991594
154	0xbea16801	-0.3152466
155	0xbe4d587d	-0.20053287
156	0xbe19f622	-0.15035298
157	0x3e8a4ae5	0.27010265
158	0x3e21a916	0.15787157
159	0xbe74579a	-0.23861542
160	0xbd22da70	-0.0397591
161	0xbe960427	-0.29300043
162	0x3e285db2	0.16441992
163	0xbdf45834	-0.11930886
164	0xbe8f63bc	-0.2800578
165	0x3e9377d7	0.28802368
166	0x3e8be29d	0.2732133
167	0xbe28373f	-0.16427325
168	0x3d291720	0.04128182
169	0xbc2d0b40	-0.010561764
170	0xbc1cbde0	-0.009566754
171	0x3e790afe	0.243206
172	0x3be4ca80	0.0069821477
173	0xbcd91300	-0.026498318
174	0x3e35c634	0.1775139
175	0xbe3edd80	-0.18639183
176	0x3e74a43a	0.23890772
177	0xbdcedce2	-0.10100724
178	0x3df4a910	0.119463086
179	0xbd047dd0	-0.032346547
180	0xbe4bf75a	-0.19918576
181	0x3e1a310e	0.15057775
182	0xbe649a38	-0.22324455
183	0x3deb07ac	0.11476073
184	0x3d7ad8b8	0.061241835
185	0xbe1e1f66	-0.15441665
186	0x3e46bbf6	0.19407639
187	0xbe2fa54c	-0.171529
188	0xbde8bb26	-0.11363821
189	0x3e96379b	0.293393
190	0x3e4a708e	0.19769499
191	0x3e19f704	0.15035635
192	0xbe7cec08	-0.24699414
193	0x3e204ea2	0.15654996
194	0x3c03b320	0.008038312
195	0xbe1438da	-0.14474812
196	0xbe84650d	-0.25858346
197	0xbe8b3398	-0.271878
198	0x3e8c85c5	0.27445808
199	0xbdd66c1e	-0.104698405
200	0xbd90319a	-0.07040711
201	0xbe59ce2b	-0.21270053
202	0x3ea1ba27	0.31587335
203	0x3e15d76e	0.14632961
204	0xbe0c1a1c	-0.13681835
205	0x3e14ff80	0.1455059
206	0x3e53e5e2	0.20693162
207	0xbe513821	-0.20431568
208	0x3e2b89f0	0.16751838
209	0x3e1cb61c	0.15303844
210	0x3e90070b	0.28130373
211	0xbe82561c	-0.2545632
212	0x3e46339a	0.19355622
213	0x3e2bf1b0	0.16791415
214	0x3dbd312c	0.092378944
215	0xbe833fbe	-0.2563457
216	0x3e2aaeae	0.16668198
217	0xbe80cccb	-0.25156245
218	0xbe2474ce	-0.16060182
219	0xbe89a951	-0.2688699
220	0xbe271ac0	-0.16318798
221	0x3e7bec66	0.24601898
222	0xbe9f5454	-0.31119025
223	0x3e10578a	0.14095894
224	0xbc40ffa0	-0.011779696
225	0xbd227520	-0.03966248
226	0xbddf126c	-0.108921856
227	0xbe8ec2dc	-0.2788304
228	0x3e3bbed4	0.18334514
229	0x3ea02117	0.31275246
230	0x3e65033e	0.22364518
231	0x3e603c3a	0.21897975
232	0xbe47bd29	-0.19505753
233	0x3e6d99ce	0.23203203
234	0x38aaf000	8.150935e-05
235	0xbd9d15ea	-0.076701954
236	0x3e9232cf	0.2855439
237	0xbe0d6846	-0.13809308
238	0x3e615426	0.22004756
239	0xbe9d36cc	-0.3070587
240	0x3e8c158d	0.27360192
241	0xbd8c130a	-0.06839569
242	0xbdf1c93c	-0.118059605
243	0x3e8396c1	0.25700954
244	0x3e7de3de	0.24793956
245	0x3e1ff6c4	0.15621477
246	0x3de12cc8	0.109948695
247	0xbe599369	-0.21247639
248	0xbd93b262	-0.07211758
249	0x3e49a772	0.19692782
250	0x3d9aec48	0.07564598
251	0x3dc46968	0.09590417
252	0x3e7bb326	0.24580058
253	0xbe5898dc	-0.21152061
254	0x3df8e3d4	0.1215283
255	0xbde25ed6	-0.11053245

lstm.bias_ih_l0 f4 [40]
0	0xbe9bb693	-0.3041273
1	0xbe570170	-0.20996642
2	0xbdef3a34	-0.11681023
3	0x3eaa7d55	0.33298746
4	0x3e07e3f9	0.13270558
5	0xbe6d189c	-0.23153919
6	0x3d83e5eb	0.06440338
7	0x3dd068dc	0.1017625
8	0xbd32e7a0	-0.043677926
9	0x3e82448b	0.2544292
10	0xbe9ed106	-0.31018847
11	0x3d3fdb00	0.046839714
12	0x3e850edf	0.25987908
13	0xbdc2d4e8	-0.09513265
14	0x3d33eb90	0.04392582
15	0x3e9c14d3	0.30484638
16	0x3dd01c00	0.101615906
17	0x3e402b4e	0.1876652
18	0xbe1ed90d	-0.15512486
19	0x3ddb1034	0.1069645
20	0xbe99b2b7	-0.3001916
21	0x3e002900	0.1251564
22	0xbcdc7bd6	-0.026914518
23	0x3e389d17	0.18028675
24	0x3e89b4bc	0.26895702
25	0xbdbc8f06	-0.09206967
26	0x3e8ab514	0.27091277
27	0xbd6c3908	-0.057671577
28	0xbdae1452	-0.084999695
29	0xbc3cc240	-0.011520922
30	0xbb4c7500	-0.0031197667
31	0x3e3c29e4	0.18375355
32	0x3cedb3e6	0.029016446
33	0xbe2e2476	-0.17006096
34	0xbe097cd1	-0.1342652
35	0xbe45cd20	-0.1931653
36	0x3db24725	0.08704976
37	0xbe4a9fc5	-0.1978751
38	0x3db236c4	0.08701852
39	0xbe6b6e46	-0.22991285

lstm.bias_hh_l0 f4 [40]
0	0x3e3d708a	0.18499961
1	0x3de9a4b0	0.11408365
2	0xbe969c9a	-0.29416353
3	0xbe17242a	-0.14759889
4	0xbcdfb264	-0.027306743
5	0x3e849521	0.25895026
6	0xbd217e6f	-0.039427217
7	0x3e99978f	0.29998443
8	0xbe952188	-0.29127145
9	0x3dffc47c	0.12488648
10	0xbe220272	-0.15821245
11	0x3e9a1223	0.30091962
12	0xbdbee836	-0.093216345
13	0x3e5d3a92	0.21604374
14	0x3e02b334	0.12763673
15	0xbda23c5e	-0.079216704
16	0x3d411ed0	0.047148526
17	0x3e08cb64	0.13358837
18	0x3c5e9dc0	0.013587415
19	0x3da8e754	0.08247247
20	0x3e16f80e	0.14743063
21	0xbe9272b4	-0.28603137
22	0x3dc96d70	0.09835327
23	0x3dc31070	0.095246196
24	0x3defc524	0.117075235
25	0xbd6f34a0	-0.058399796
26	0xbdc4398c	-0.09581289
27	0xbe89a7ae	-0.26885742
28	0xbc56fce0	-0.013121814
29	0xbe457722	-0.19283727
30	0xbe39c746	-0.18142423
31	0xbe983c2d	-0.2973341
32	0xbdcf45ff	-0.101207726
33	0xbcff822f	-0.031190006
34	0x3e95ad66	0.29233855
35	0x3e8b7025	0.27233997
36	0xbe7e2dad	-0.24822111
37	0xbe20a8dc	-0.15689415
38	0x3e3dade2	0.18523362
39	0x3d2e3d70	0.04253906

fc_1.weight f4 [128, 10]
0	0x3e5e708e	0.21722624
1	0xbcb9b790	-0.022670537
2	0xbe90a3c9	-0.28249958
3	0xbe231f01	-0.15929796
4	0xbe2a8d52	-0.16655472
5	0x3d9f288c	0.077714056
6	0xbd8c6b5e	-0.06856416
7	0x3d1230b0	0.035690963
8	0xbd2d39d8	-0.042291492
9	0x3d6442f0	0.0557279
10	0xbe22adf9	-0.15886678
11	0x3dc4a5cc	0.09601936
12	0xbe278746	-0.16360196
13	0x3e6a63d6	0.22889647
14	0xbdea7fe4	-0.114501745
15	0xbb362300	-0.0027791858
16	0x3e72cefa	0.23711768
17	0x3ddce768	0.10786325
18	0xbde08558	-0.10962933
19	0x3e5e4d8a	0.21709266
20	0x3df8e40c	0.121528715
21	0x3e7e5356	0.24836478
22	0xbe62d3eb	-0.22151153
23	0xbe79f434	-0.24409562
24	0x3e6c4ba5	0.23075731
25	0xbe1a67f7	-0.15078722
26	0x3bb29ea4	0.0054510403
27	0x3e9fb037	0.3118913
28	0x3e1d41f8	0.15357196
29	0xbe8da746	-0.27666682
30	0xbda1e548	-0.0790506
31	0x3d7b4128	0.061341435
32	0x3d8cb738	0.06870884
33	0xbe882dfa	-0.26597577
34	0x3e0ec188	0.13941014
35	0x3e0e5e6a	0.13903204
36	0xbe782739	-0.24233712
37	0x3ddd1170	0.107943416
38	0x3e68c71a	0.22732201
39	0xbe174953	-0.14774065
40	0x3e16c0f8	0.14722049
41	0x3e380c32	0.17973402
42	0x3e5a2966	0.21304855
43	0xbe2bfbf2	-0.16795328
44	0xbe91229e	-0.28346723
45	0xbe1eaad8	-0.15494859
46	0xbe2c33b4	-0.16816598
47	0x3dc53cf8	0.096307695
48	0xbd27c278	-0.040956944
49	0x3e849075	0.25891462
50	0xbea00d73	-0.3126026
51	0xbe7165e4	-0.23574024
52	0xbe8c77dc	-0.27435195
53	0x3e817a35	0.2528855
54	0xbde0047a	-0.10938354
55	0xbdf4ce0a	-0.11953361
56	0xbdef6d52	-0.11690773
57	0x3ddc5b6c	0.10759625
58	0x3b43a780	0.0029854476
59	0x3d9d90a8	0.076936066
60	0x3e6e818e	0.23291609
61	0x3e963d35	0.29343572
62	0x3e84f307	0.25966665
63	0x3e63c566	0.2224327
64	0xbe8d10af	-0.2755179
65	0x3e9e0b0b	0.308678
66	0x3e10d096	0.14142069
67	0x3e649ef2	0.22326258
68	0x3e4c6d66	0.19963607
69	0x3decd284	0.1156359
70	0x3e6a7492	0.2289603
71	0x3e7c33fa	0.24629202
72	0x3d085880	0.033287525
73	0xbda54ece	-0.080716714
74	0xbce3b070	-0.027794093
75	0x3dadc04c	0.08483943
76	0x3cd3c1e0	0.025849283
77	0xbe72edde	-0.23723552
78	0xbe96641e	-0.29373258
79	0x3d661178	0.056169003
80	0xbe573a5c	-0.21018356
81	0xbceab1e0	-0.02864927
82	0x3e01946f	0.12654279
83	0xbe57a5a3	-0.21059279
84	0xbc2deac7	-0.010615057
85	0x3c3f94e0	0.011693209
86	0xbdc14aaf	-0.09438073
87	0xbe970774	-0.29497874
88	0x3ddf68d4	0.10908666
89	0x3d9ff1b8	0.07809776
90	0x3e8c1ba5	0.2736484
91	0xbe7d85a3	-0.2475801
92	0xbdda0f96	-0.10647504
93	0xbce6ca00	-0.028172493
94	0x3daa0120	0.08300996
95	0x3e9eb8fb	0.31000504
96	0xbe41709e	-0.18890616
97	0x3e777f46	0.24169645
98	0xbc3a4d00	-0.011370897
99	0xbd6575d8	-0.056020588
100	0x3c814700	0.015780926
101	0x3e65b33a	0.22431651
102	0xbd889a12	-0.066700116
103	0xbcdf4330	-0.027253717
104	0x3e94a781	0.29034045
105	0x3d26f5c0	0.04076171
106	0xbe3d68af	-0.18496965
107	0xbdd9e5f8	-0.10639566
108	0x3e54a1a2	0.20764783
109	0x3d5a0e50	0.053236306
110	0x3e9472bd	0.28993788
111	0xbe5c97fe	-0.21542355
112	0x3c0b9700	0.008519888
113	0x3e2cb368	0.16865313
114	0xbe91f52d	-0.28507367
115	0x3dd9b294	0.10629764
116	0xbe8c2f16	-0.27379674
117	0xbc1dc0a0	-0.009628445
118	0x3da02650	0.078198075
119	0x3e8236cb	0.2543243
120	0xbd112ab8	-0.03544113
121	0xbdfff982	-0.12498762
122	0x3e195814	0.14975005
123	0x3e145774	0.14486486
124	0x3c414360	0.011795849
125	0xbe59886e	-0.2124345
126	0x3d93af40	0.07211161
127	0xbe4b2357	-0.198377
128	0xbd057370	-0.032580793
129	0xbe55f517	-0.20894276
130	0xbe942d03	-0.2894059
131	0x3da83e68	0.08215028
132	0xbe3a8261	-0.18213798
133	0xbe044ff6	-0.12921128
134	0x3e8354ef	0.25650737
135	0xbe8de54c	-0.27714002
136	0xbe782e7a	-0.2423648
137	0xbe621e20	-0.22081804
138	0x3da4b264	0.08041838
139	0xbe2dabe5	-0.16960104
140	0xb962b000	-0.00021618605
141	0x3e822e1f	0.25425813
142	0xbe482d64	-0.19548565
143	0xbe813cec	-0.25241792
144	0x3e046120	0.12927675
145	0xbe72f0d7	-0.23724686
146	0xbe6a339c	-0.2287125
147	0xbc877e10	-0.016539603
148	0x3dda39b8	0.1065554
149	0x3c3c8f60	0.011508793
150	0xbd8956e6	-0.06706028
151	0xbde272ae	-0.1105703
152	0xbe26ea0c	-0.1630022
153	0xbe583732	-0.21114805
154	0xbe2d8697	-0.16945873
155	0x3e899eb3	0.2687889
156	0x3e8e7a24	0.2782756
157	0xbc82c270	-0.015961856
158	0xbdf31144	-0.118685275
159	0x3e79fa1e	0.24411818
160	0x3e50de9a	0.20397416
161	0x3e0a7104	0.13519675
162	0xbe7881c4	-0.24268252
163	0xba1b8200	-0.0005932152
164	0x3d1f4e40	0.038892984
165	0x3e7e08e2	0.24808076
166	0x3e5606ea	0.20901075
167	0xbe668536	-0.22511753
168	0xbe1acec3	-0.15117936
169	0xbe9db463	-0.30801687
170	0xbd5f5360	-0.054522872
171	0x3e05bd38	0.13060462
172	0xbe8a4861	-0.27008346
173	0x3d2ab150	0.041673005
174	0x3e2a8a0c	0.16654223
175	0xbda396c6	-0.07987742
176	0xbe8df2a2	-0.27724177
177	0x3e0a7230	0.13520122
178	0x3e831fe5	0.2561027
179	0x3e230440	0.1591959
180	0xbdc9c4e2	-0.098520055
181	0xbe154f27	-0.14580975
182	0xbd1c59a8	-0.03817144
183	0xbc089340	-0.008335888
184	0x3e38a68c	0.18032283
185	0x3e6e17ce	0.23251268
186	0xbe851245	-0.259905
187	0x3e2224a6	0.15834293
188	0x3ce3eda0	0.02782327
189	0x3e4cab66	0.19987258
190	0xbe95e4bd	-0.29276076
191	0x3e960cd9	0.29306677
192	0xbda5859b	-0.08082124
193	0x3e48f680	0.19625282
194	0x3d80b7bb	0.06285044
195	0x3e95095f	0.29108712
196	0x3e3293ec	0.1743924
197	0xbe9cbf4a	-0.30614692
198	0x3d33b158	0.0438703
199	0xbd74caa0	-0.05976355
200	0xbe5980be	-0.21240517
201	0x3ddfc090	0.109254
202	0xbe597ca4	-0.21238953
203	0x3d15c118	0.0365611
204	0x3d9a393c	0.07530448
205	0x3e4b9bee	0.19883701
206	0xbe04bb4e	-0.12962076
207	0x3e29cad4	0.16581279
208	0x3c577100	0.0131495
209	0x3e5982d6	0.21241316
210	0x3dc9bc7c	0.09850404
211	0xbdcb8b48	-0.09938675
212	0x3e3efec7	0.18651877
213	0x3cef4e6c	0.0292122
214	0xbd1aeda2	-0.03782428
215	0x3e85bb1b	0.26119313
216	0x3eb0b1cb	0.34510645
217	0x3d3d2ae0	0.046183467
218	0x3e270708	0.16311276
219	0xbdfeeb5e	-0.124472365
220	0xbdbc1cce	-0.091851816
221	0x3ca2e950	0.019886643
222	0x3dc930c4	0.098237544
223	0x3e4afe4a	0.19823566
224	0x3e62eafa	0.22159949
225	0xbe6485d4	-0.22316676
226	0x3e6ed8ca	0.23324886
227	0xbe0f3b3e	-0.13987443
228	0x3e026478	0.12733638
229	0x3e7a04da	0.24415913
230	0xbda5da7a	-0.08098312
231	0x3e65caca	0.22440639
232	0xbb5671ce	-0.0032721641
233	0x3e59903d	0.21246429
234	0xbe6ddc88	-0.23228657
235	0xbdc4a74e	-0.09602223
236	0xbe5330c8	-0.20624077
237	0xbe1385e0	-0.14406538
238	0x3e1eb580	0.15498924
239	0xbe961e40	-0.29319954
240	0x3e9dad39	0.3079622
241	0xbe9e9c7b	-0.3097876
242	0x3dc554e7	0.096353345
243	0x3ea0229c	0.31276405
244	0x3e199bbc	0.15000814
245	0xbc806740	-0.015674233
246	0x3d55b9af	0.052179035
247	0xbcb2b330	-0.021813959
248	0xbda671b2	-0.081271544
249	0x3e50f6ee	0.20406696
250	0x3e973367	0.29531404
251	0xbe2421c9	-0.16028513
252	0x3e8d35a3	0.27579984
253	0xbdcfd57a	-0.10148139
254	0xbe3fc72c	-0.18728322
255	0x3db34980	0.087542534

fc_1.bias f4 [128]
0	0xbe580aea	-0.21097913
1	0xbcc470b0	-0.023979515
2	0x3ddd6197	0.108096294
3	0xbe924f5c	-0.2857617
4	0xbcc44640	-0.023959279
5	0xbdf7417a	-0.120730355
6	0xbe51127d	-0.20417209
7	0xbdb93746	-0.09043746
8	0x3d90b466	0.07065658
9	0xbdf37e52	-0.11889328
10	0xbd7e0d80	-0.062024593
11	0xbe0a0d45	-0.13481624
12	0xbddfc236	-0.10925715
13	0x3e940436	0.28909463
14	0xbe2d12b6	-0.16901669
15	0x3e064c6a	0.13115087
16	0xbe746e31	-0.2387016
17	0xbe3b2586	-0.18276033
18	0xbe97aa1e	-0.29621977
19	0x3dee69b8	0.11641258
20	0xbe321b7f	-0.17393301
21	0x3dbaf07c	0.091279
22	0xbdb971f4	-0.09054938
23	0x3e17bbfa	0.14817801
24	0x3eb2ffa1	0.34960654
25	0x3d9de401	0.07709504
26	0xbe5232c5	-0.2052718
27	0xbe3c63d6	-0.1839746
28	0x3d3bd68d	0.04585891
29	0x3e6b15ac	0.22957486
30	0x3eae84eb	0.34085783
31	0x3e190c57	0.14946114
32	0xbe55ba9e	-0.2087197
33	0xbe5908ec	-0.2119481
34	0xbe508400	-0.20362854
35	0xbd409200	-0.047014236
36	0xbde0273a	-0.10944982
37	0xbe8bd345	-0.27309623
38	0xbe2d1e71	-0.16906144
39	0x3e781d79	0.24229993
40	0x3ea0870b	0.3135303
41	0xbe87cf35	-0.26525274
42	0x3d14eb77	0.03635737
43	0x3dafe4ae	0.08588539
44	0xbd4d7638	-0.05016157
45	0xbe1ecf27	-0.1550871
46	0xbe59d92e	-0.21274254
47	0xbe5e690a	-0.21719757
48	0xbca85e10	-0.020552665
49	0xbe916240	-0.2839527
50	0xbdbc92d6	-0.09207694
51	0x3d0ffc70	0.035152853
52	0xbdaab60c	-0.08335504
53	0xbdc14f18	-0.09438914
54	0xbc7449e0	-0.014910191
55	0x3d586d33	0.052838515
56	0xbdc41f48	-0.09576279
57	0xbd314551	-0.043278996
58	0x3e26b9ee	0.16281864
59	0xbe08cf9c	-0.13360447
60	0x3d7325d2	0.05936224
61	0x3dbdfe01	0.09276963
62	0x3d6a1620	0.057150006
63	0xbd399d20	-0.04531586
64	0x3eb2c667	0.34916994
65	0xbe3985e2	-0.18117478
66	0x3ea8ce4e	0.32969898
67	0xbe8c57d8	-0.2741077
68	0xbe9d2b6c	-0.3069719
69	0xbe804596	-0.2505309
70	0xbe9d7243	-0.30751237
71	0x3e866751	0.262507
72	0xbdd34f3e	-0.103178486
73	0x3dc013f9	0.093788095
74	0x3dbfbed5	0.0936257
75	0x3e82e96d	0.25568715
76	0xbdffe340	-0.124945164
77	0x3de5c9db	0.112201415
78	0x3eabf24f	0.33583304
79	0x3e85e293	0.26149425
80	0x3e0d55fa	0.13802329
81	0xbe2963cd	-0.16541977
82	0xbe4e5e58	-0.20153177
83	0xbe942f7a	-0.28942472
84	0x3e5468d2	0.20743111
85	0xbdfbae70	-0.12289131
86	0x3e84ec6b	0.25961623
87	0x3e1279c8	0.14304268
88	0xbd97783e	-0.07395981
89	0xbe8562d5	-0.26051965
90	0x3e9ad531	0.30240777
91	0xbe7437d2	-0.23849419
92	0x3e57bd76	0.21068367
93	0xbd710028	-0.05883804
94	0xbd5cb7f0	-0.053886354
95	0x3dd14f18	0.10220164
96	0xbdfa1060	-0.122101545
97	0xbdfed246	-0.1244245
98	0x3e4f1a53	0.20224886
99	0x3c22d285	0.009937887
100	0xbe411b69	-0.18858112
101	0xbd686e28	-0.05674568
102	0xbe4d9aa4	-0.20078522
103	0xbdeedcc4	-0.116632015
104	0x3c975470	0.01847288
105	0x3ea76476	0.32693833
106	0x3e8e2088	0.27759194
107	0x3e27d10a	0.16388336
108	0x3e4fa9a8	0.20279562
109	0xbe955ec8	-0.29173875
110	0x3e6443cf	0.22291492
111	0x3d5da6d6	0.054114185
112	0xbd1ce4e8	-0.03830424
113	0x3d3c5b99	0.04598579
114	0x3da8288b	0.08210858
115	0x3e72ef8c	0.23724192
116	0xbe05ba02	-0.13059238
117	0xbdfe186e	-0.12407003
118	0xbdcc1ec8	-0.099668086
119	0x3dfe1763	0.124068044
120	0x3e2a1d3a	0.16612712
121	0xbdc7f8a2	-0.0976422
122	0x3e163413	0.14668302
123	0x3e43fd58	0.19139612
124	0xbac75675	-0.0015208261
125	0x3deaade4	0.11458948
126	0xbe297a6e	-0.1655061
127	0xbcf443c0	-0.029817462

fc_2.weight f4 [64, 128]
0	0x3d6a21d6	0.057161175
1	0x3ca7d4c8	0.020487204
2	0x3d945a41	0.07243777
3	0xbda87455	-0.082253136
4	0x3d803b4f	0.06261312
5	0x3c165708	0.009176023
6	0xbd8f5014	-0.069976956
7	0x3d350c72	0.044201322
8	0x39a17f00	0.00030802935
9	0x3b6190e0	0.0034418628
10	0xbd0de186	-0.034638904
11	0xbc4f6540	-0.012658417
12	0xbd9a7a9a	-0.07542916
13	0xbd00ee1c	-0.03147708
14	0xbd82f17b	-0.06393715
15	0x3d93cdbb	0.07216974
16	0xbc4da670	-0.012551889
17	0x3c74dd28	0.014945306
18	0xbb587640	-0.0033029467
19	0x3ca0ebd8	0.019643709
20	0x3dae6761	0.08515812
21	0x3d8c125d	0.0683944
22	0x3d31c03e	0.043396227
23	0xbd9ab6b2	-0.075543776
24	0x3c5ab2d0	0.013348296
25	0x3cfc70bc	0.030815475
26	0xbd441bc1	-0.04787803
27	0x3d8da2e7	0.06915837
28	0x3c19a948	0.009378739
29	0x3db129e5	0.08650569
30	0xbd89b42e	-0.0672382
31	0xbd1702e8	-0.036868006
32	0x3c4b07a0	0.012391955
33	0x3c1ac7a0	0.009447008
34	0xbc012790	-0.007882968
35	0x3bf53a80	0.0074837804
36	0xbce5554e	-0.027994778
37	0x3c7df938	0.015501313
38	0x3d950357	0.07276028
39	0xbd82155f	-0.063517325
40	0xbda1b900	-0.07896614
41	0xbd79f352	-0.061023064
42	0x3db232eb	0.08701118
43	0xbc908b5c	-0.017644577
44	0x3dadcd8f	0.08486473
45	0xbca70658	-0.020388767
46	0xbc3cb1d0	-0.011517003
47	0xb9b3c300	-0.00034286827
48	0x3c8afb90	0.016965657
49	0x3c10c030	0.008834884
50	0xbdb4844a	-0.08814295
51	0xbd7f5f61	-0.06234682
52	0x3d9d256b	0.076731525
53	0x3cd612f8	0.026132092
54	0x3bcf3ae0	0.006324157
55	0xbd81400d	-0.06311045
56	0xbcdcc426	-0.026949
57	0x3cdc3ed0	0.02688542
58	0x3cc7d008	0.02439119
59	0x3add4380	0.0016881078
60	0x3d3d083a	0.046150424
61	0x3dabf049	0.0839544
62	0xbc8bcc38	-0.017065153
63	0xbd8af81c	-0.06785604
64	0xbc42dca0	-0.011893421
65	0xbdabb759	-0.0838458
66	0xbb8e6c00	-0.0043463707
67	0xbc073160	-0.008251518
68	0xbc216dc8	-0.009852834
69	0x3bc29770	0.005938463
70	0x3d99dfe3	0.07513406
71	0xbd75e226	-0.060030125
72	0xbd7068d4	-0.058693722
73	0x3d9cffd7	0.07665985
74	0x3d4928aa	0.049111046
75	0x3d644a26	0.055734776
76	0xbda6c9b0	-0.081439376
77	0x3d5e6ca6	0.054302834
78	0x3d07ef8e	0.03318744
79	0x3c9f6258	0.019456074
80	0x3c3fe690	0.011712685
81	0x3da9eff9	0.08297724
82	0xbd9adb3a	-0.075613454
83	0x3d935331	0.07193602
84	0xbd7007a0	-0.05860102
85	0x3c979338	0.018502817
86	0x3d8fe155	0.070254005
87	0x3d3bc1aa	0.04583899
88	0xbda38f7b	-0.07986351
89	0xbda8d206	-0.08243184
90	0xbd854368	-0.06506997
91	0x3d9c62eb	0.076360546
92	0x3c671a98	0.014105462
93	0x3d4c7f9e	0.049926393
94	0x3d101256	0.035173737
95	0xbd434824	-0.04767622
96	0x3c0d3770	0.008619174
97	0xbcf5be74	-0.029998042
98	0xbd43905d	-0.047745097
99	0xbd2dc1de	-0.042421214
100	0xbd20fde8	-0.039304644
101	0xbdaf295d	-0.08552811
102	0xbcc76e10	-0.024344474
103	0x3d648b1a	0.05579672
104	0xbc2ed460	-0.010670751
105	0xbd399689	-0.045309577
106	0xbcb88688	-0.022525087
107	0xbcb621e4	-0.022232957
108	0xbd029ca6	-0.031887673
109	0xbd5bf5a4	-0.053701058
110	0xbc039c20	-0.008032829
111	0x3d28dc0a	0.04122547
112	0xbc0ea8c8	-0.008707233
113	0x3d97ba95	0.074086346
114	0x3d4192ae	0.047259025
115	0xbd71acc0	-0.059002638
116	0x3d18a02a	0.03726212
117	0x3c42aef8	0.011882536
118	0x3a45ce80	0.00075457245
119	0x3cf484ac	0.02984842
120	0xbd320560	-0.043462157
121	0xbb8bae30	-0.004262708
122	0xbcbcbd44	-0.023039468
123	0xbd1681c3	-0.036744844
124	0xbb2cdf00	-0.0026378036
125	0xbd877a38	-0.06615108
126	0x3d30f9ae	0.043206863
127	0xbd4f1dce	-0.050565533
128	0x3d9f6bb5	0.07784215
129	0xbdaa5f83	-0.08318999
130	0x3cbe655c	0.023241691
131	0xbcbdc078	-0.023163065
132	0xbd422955	-0.0474027
133	0x3d036ec0	0.03208804
134	0x3d9400cd	0.07226715
135	0xbb0092a0	-0.0019618645
136	0x3c5f1bd8	0.013617478
137	0x3cc6fbd8	0.02429001
138	0x3d71c3a6	0.059024476
139	0xbb2fbb60	-0.0026814565
140	0x3d4a5822	0.049400456
141	0xbd3f32c8	-0.04667929
142	0xbd6f458b	-0.05841593
143	0xbdb16c79	-0.08663268
144	0xbd3194bc	-0.043354735
145	0x3ce0de00	0.027449608
146	0x3da8c519	0.082407184
147	0x3d96e965	0.07368735
148	0x3d98a1ad	0.07452712
149	0x3b769e80	0.0037631094
150	0x3cec0088	0.028808847
151	0x3c931198	0.017952725
152	0xbb3f6020	-0.0029201582
153	0x3db0b9e3	0.08629205
154	0xbd7348a0	-0.059395432
155	0x3bc5da40	0.0060379803
156	0x3d66796e	0.056268148
157	0xbd680f60	-0.056655288
158	0xbdac9758	-0.08427304
159	0x3d9aa145	0.07550291
160	0x3daa6ba9	0.08321316
161	0x3d81c071	0.063355334
162	0x3d6bd076	0.05757185
163	0xbd8ab281	-0.06772328
164	0x3c8f7d30	0.017515749
165	0xbdae9518	-0.08524531
166	0xbdb33adf	-0.08751463
167	0x3daa90bd	0.08328388
168	0xbd98c8f6	-0.07460205
169	0xbd480d45	-0.04884078
170	0x3cddfe70	0.027098864
171	0x3d68c2f2	0.05682654
172	0xbc8d2d8c	-0.017233633
173	0x3d065232	0.03279323
174	0x3a0f8100	0.00054742396
175	0x3db2ad0d	0.08724413
176	0x3dae0bf3	0.08498373
177	0x3cfceee0	0.030875623
178	0xbc847d60	-0.016173065
179	0xbda397e8	-0.07987958
180	0x3d5d7366	0.05406513
181	0xbcfa2468	-0.030534938
182	0xbcaf2a14	-0.02138237
183	0xbd43ea63	-0.04783095
184	0xbcb4f24c	-0.022088192
185	0x3d65c30a	0.056094207
186	0xbd2bf4d2	-0.041981526
187	0x3d997c21	0.07494379
188	0x3c7a15d8	0.015263997
189	0xbda9b919	-0.08287258
190	0x3d45ae8e	0.04826217
191	0x3b07bfa0	0.0020713583
192	0x3d75c9fa	0.060007073
193	0xbbab7930	-0.0052329525
194	0xbc4758c0	-0.012167156
195	0xbc5a1d20	-0.013312608
196	0xbd57b277	-0.05266043
197	0xbd9a1c5d	-0.07524941
198	0x3cc627dc	0.024188928
199	0x3da51281	0.0806017
200	0xbccd57dc	-0.025066309
201	0xbce302a2	-0.027711216
202	0x3d5b29ae	0.053506546
203	0x3d173e82	0.036924846
204	0x3b8f9c40	0.00438264
205	0x3c7791f0	0.015110478
206	0x3b542fc0	0.0032377094
207	0x3d8fef09	0.07028014
208	0xbbdb5ca0	-0.0066943914
209	0x3d8dc02b	0.06921419
210	0x3d61c0ba	0.05511544
211	0xbd0feeb7	-0.035139766
212	0xbdb44f4b	-0.088041864
213	0x3da83579	0.08213324
214	0xbcada9b4	-0.021199085
215	0x3d923b21	0.07140184
216	0xbd8d1394	-0.068885
217	0x3d4e372a	0.050345577
218	0x3d4126b2	0.047156043
219	0x3d5c7dae	0.053830795
220	0xbd9fd30c	-0.07803926
221	0x3ca26d44	0.019827493
222	0x3d5d3586	0.054006122
223	0x3d77bf9e	0.060485475
224	0xbda05ea4	-0.07830551
225	0x3d2774fa	0.040883042
226	0xbc1dd490	-0.009633198
227	0x3d84589d	0.06462214
228	0xbd03785f	-0.032097217
229	0xbd9b9400	-0.07596588
230	0x3d68ed1a	0.056866743
231	0x3d8d5f39	0.06902928
232	0x3ce5f96c	0.028073035
233	0x3d73625e	0.059419982
234	0x3d85c199	0.065310664
235	0x3d98b23b	0.0745587
236	0xbd0a75ed	-0.03380387
237	0xbd37b1c8	-0.04484728
238	0xbcd9e0a6	-0.026596379
239	0xbdb0dc69	-0.0863579
240	0x3c3ea950	0.011637047
241	0xbc679808	-0.014135368
242	0xbd06584b	-0.032799046
243	0x3b6e3640	0.0036348253
244	0x3d79940a	0.060932197
245	0x3d8d82c5	0.06909708
246	0xbcab195c	-0.020886116
247	0xbd83d22f	-0.06436574
248	0x3d2560ea	0.040375628
249	0xbbbdf700	-0.005797267
250	0xbd86d86e	-0.065842494
251	0xbcd45812	-0.025920901
252	0xbd19feb4	-0.03759642
253	0xbb8d28b0	-0.004307829
254	0xbd020c4d	-0.031750012
255	0x3d95f139	0.073214

fc_2.bias f4 [64]
0	0x3c1f6ce8	0.009730555
1	0xbd337fda	-0.0438231
2	0x3ce1357c	0.027491324
3	0xbd64e905	-0.055886287
4	0x3da76a81	0.08174611
5	0xbd916be6	-0.07100658
6	0x3d7a19ea	0.06105987
7	0x3daf31b5	0.08554403
8	0xbcd22420	-0.025651991
9	0xbdae7e36	-0.085201666
10	0xbd092dd4	-0.03349097
11	0xbd7e1576	-0.062032185
12	0xbcf2437e	-0.029573198
13	0xbc04d0e8	-0.008106448
14	0x3cde7bdc	0.02715867
15	0x3db00ed5	0.08596579
16	0x3d8e53ef	0.06949603
17	0x3daff401	0.08591462
18	0xbd6eb0e6	-0.058274172
19	0xbbf0fc40	-0.0073542893
20	0xbd6c8f88	-0.05775407
21	0xbda5d5ce	-0.08097421
22	0x3c4dcf98	0.012561701
23	0xbdaa9062	-0.0832832
24	0xbd13d000	-0.036087036
25	0xbd6e09a5	-0.058114666
26	0x3d5bf88a	0.053703822
27	0x3c6622f0	0.014046416
28	0x3d990c37	0.07473033
29	0xbdab2d42	-0.083582416
30	0xbda224c4	-0.07917169
31	0x3cdf31ac	0.027245365
32	0x3d3f3036	0.046676837
33	0xbdac0abb	-0.08400484
34	0x3d96f185	0.07370285
35	0x3da24aaf	0.07924401
36	0x3b163600	0.002292037
37	0xbd85c8f8	-0.06532472
38	0xbd746c02	-0.059673317
39	0x3ccbc570	0.024874419
40	0x3bcfd1a0	0.006342128
41	0x3d9d08e3	0.07667711
42	0xbd975363	-0.07388952
43	0x3d8ee595	0.06977383
44	0x3c655508	0.013997324
45	0xbd8922ec	-0.06696114
46	0x3c4e65d0	0.012597516
47	0xbbf38a80	-0.007432282
48	0x3c5f1aa8	0.013617195
49	0x3bb99130	0.0056630597
50	0x3cb4e374	0.022081114
51	0xbcfa8016	-0.030578654
52	0xbcef6c86	-0.029226553
53	0xbc935414	-0.017984428
54	0xbd8cff55	-0.06884638
55	0xbd26e25d	-0.04074322
56	0x3d2db8b2	0.042412467
57	0xbd7c4752	-0.061591454
58	0x3d3e005a	0.046387054
59	0xbda2859f	-0.079356425
60	0x3cd03d84	0.025419958
61	0x3c6d4fb0	0.014484331
62	0x3b2ce3e0	0.0026380941
63	0xbc4e98f8	-0.012609713

fc.weight f4 [1, 128]
0	0x3d6de582	0.058080204
1	0xbdaf8ffa	-0.08572383
2	0x3dec9fd0	0.11553919
3	0x3b9b6890	0.0047426894
4	0xbba3d5b0	-0.004999839
5	0xbda4b979	-0.080431886
6	0xbd15f7cf	-0.03661328
7	0x3d66b682	0.056326397
8	0x3e043711	0.12911631
9	0xbdb4b7e4	-0.08824137
10	0xbd8a204b	-0.06744441
11	0xbda2637a	-0.0792913
12	0xbd91398b	-0.070910536
13	0x3de0868d	0.109631635
14	0xbd38e69c	-0.0451418
15	0x3d98b6a8	0.07456714
16	0xbdaee137	-0.0853905
17	0x3b3cafc0	0.0028791279
18	0x3d31b046	0.043380998
19	0x3da0ff45	0.07861189
20	0x3d5018c6	0.050804876
21	0x3da5764b	0.08079203
22	0xbc4590b0	-0.012058422
23	0x3df16bae	0.117881164
24	0x3d6fabe7	0.05851355
25	0xbc29f82b	-0.010374109
26	0xbda6c18a	-0.081423834
27	0x3d8e324f	0.06943189
28	0x3d79356e	0.06084197
29	0x3dfc7c31	0.12328375
30	0x3d102549	0.035191808
31	0xbcb3b30e	-0.021935966
32	0xbd87e00a	-0.06634529
33	0x3d13562c	0.03597085
34	0xbaefa400	-0.0018283129
35	0x3d004876	0.031319104
36	0x3ca685a8	0.020327404
37	0xbd66172d	-0.056174446
38	0xbd6d1116	-0.057877623
39	0xbd343a97	-0.044001188
40	0x3d8b0d17	0.06789606
41	0xbcef6b2c	-0.029225908
42	0x3da1c854	0.07899538
43	0x3df640f7	0.1202411
44	0xbd233137	-0.039841857
45	0x3d8f898b	0.07008656
46	0x3cb707c0	0.022342563
47	0x3ca984c8	0.020693198
48	0xbc314868	-0.010820486
49	0xbd661842	-0.056175478
50	0xbda8f061	-0.08248974
51	0xb983787f	-0.00025076044
52	0xbd9a3f28	-0.07531577
53	0xbd28ee0b	-0.04124264
54	0x3d6add2a	0.057339825
55	0x3dcc6dee	0.09981905
56	0xbcf3ab10	-0.029744655
57	0xbdb03bc4	-0.086051494
58	0x3db3e121	0.08783174
59	0xbb8fba80	-0.004386246
60	0xbd3748b1	-0.04474706
61	0xbc10e804	-0.008844379
62	0x3b4b5e36	0.0031031496
63	0x3c66cb10	0.0140865
64	0x3d9e7e0c	0.07738885
65	0xbd1506e5	-0.03638353
66	0x3d9164cb	0.07099303
67	0x3db1cfd7	0.086822204
68	0x3b88f100	0.00417912
69	0xbd69f627	-0.057119515
70	0x3c315500	0.010823488
71	0xbd251686	-0.040304683
72	0x3cee93d0	0.029123217
73	0xbd2ecd61	-0.042676333
74	0x3dbba830	0.091629386
75	0x3d554387	0.052066352
76	0xbdb4e8c4	-0.08833459
77	0xbd31d899	-0.043419454
78	0x3dc16e85	0.09444908
79	0x3dc67fe1	0.0969236
80	0x3ca169fc	0.019703858
81	0xbd6ea886	-0.058266185
82	0x3c1ce638	0.009576373
83	0xbd7149ca	-0.05890826
84	0xbcfe831b	-0.031068375
85	0xbd3d0cd7	-0.046154823
86	0x3c38fbdd	0.011290518
87	0xbd2e5abf	-0.04256701
88	0x3dafacd5	0.08577887
89	0xbdb36904	-0.087602645
90	0x3dfe0689	0.1240359
91	0x3baf5c00	0.0053515434
92	0xbc48cfff	-0.012256621
93	0xbda6fbd6	-0.08153503
94	0xbdb29bb0	-0.08721101
95	0x3ce1b0c1	0.027550103
96	0xbda41002	-0.08010866
97	0x3d917227	0.07101851
98	0x3ba6ca08	0.005090002
99	0x3aaa26c0	0.0012981519
100	0xbd9d2982	-0.076739326
101	0xbd983e5f	-0.07433771
102	0xbdb0a5a5	-0.08625344
103	0x3b34ecc0	0.0027606934
104	0xbd4c6471	-0.049900476
105	0x3df5489f	0.11976742
106	0x3c741ff2	0.0149001945
107	0xbc69a113	-0.0142595945
108	0x3d0b58a7	0.034020092
109	0xbc63edd8	-0.013911687
110	0x3dfe10e4	0.124055654
111	0xbc1122df	-0.008858412
112	0xbc9b6d0c	-0.018972896
113	0x3dd2ffc8	0.10302693
114	0xbc0d249c	-0.008614685
115	0x3de46aea	0.11153205
116	0x3c5c2378	0.013436191
117	0xbd72eb1a	-0.05930624
118	0x3d97cb07	0.07411771
119	0xbd02c885	-0.03192951
120	0x3da0b83d	0.07847641
121	0x3d1b92be	0.03798174
122	0x3de95a76	0.11394207
123	0x3d9243c8	0.071418345
124	0xbd21c2b8	-0.03949234
125	0x3db6ef1d	0.08932326
126	0xbd680747	-0.056647565
127	0xbd93d785	-0.072188415
